best_pytorch_lstm_model.pth (torch, 229049 bytes, 13 tensors)

lstm.weight_ih_l0 f4 [256, 12]
00000000: 2150 d63e d043 8d3c 0d81 9dbd 784b fdbd
00000010: 88d5 88bc 6bdf 233e 4441 9ebc 70d3 0abd
00000020: a539 823e 41fd 7d3e 0c7c 0cbf ff7c 813d
00000030: 62ad be3c 7d53 ae3d 0988 b03c 0de5 bfbc
00000040: 9e0f b63c 30a0 893e ab94 a5bc c560 e2bd
00000050: 9e5c 21bf 2954 e03e 1660 ce3e 1350 27be
00000060: 425f f6bd 8dd8 1c3e 2a86 23be f6ce 12bc
00000070: eb35 95bc 3c1d bc3d 3b41 58be 791a d2bd
00000080: 2262 e8bc 15d8 aa3e 7487 bdbc 92fe 323d
00000090: 08da 26be 1951 17bd 3f54 debc 8e7e 0bbd
000000a0: 05d9 d83c 6a54 ab3e 9e96 383d 2356 823d
000000b0: d590 a73c c2c7 0a3f abc5 753e edd2 c0be
000000c0: 6bf8 973f e827 8e3c 627a aabc 24d5 993c
000000d0: 3fcd 473d c9ef ca3d 88dd 70bd 3891 5bbd
000000e0: 070a 5b3e ef85 133f d3f8 cb3d becf d9be
000000f0: 532c 4e3e 894e ad3d 1672 0bb9 2535 483d
00000100: 49c6 0e3e a680 863d 8df7 94bc c4e1 2a3d
00000110: fda5 20be 3ff3 8c3c 9186 193c f3f0 d2be
00000120: 0a1e fc3c 1333 41be 086c b43c 4eb8 bebd
00000130: 329b 81be dd8f 583e c593 98be b6fe fcbe
00000140: 4414 2e3e 8229 65be c08c 76be 2428 22bd
00000150: 0b9a 35be 3702 4f3d 6810 0f3b a0de 193e
00000160: 41cf cb38 538b 1bbd 8ade 94be 00bf 4abe
00000170: fe04 7dbe e995 8f3d 3464 8dbe 147d 4b3c
00000180: f489 983e 4523 d3bd 25f4 b3bd 0f17 303d
00000190: ef90 423d 35f8 bcbe 4b81 02bf 2f03 b0be
000001a0: 29d9 7fbe ca04 b6be 6bca b1bc 752d 8bbe
000001b0: 0aa9 f93c da14 3a3e a69d b63d 5588 3d3d
000001c0: eb98 10be 9935 d43e 63be afbd b89c 43bd
000001d0: 5650 77bd 47d0 073d 5993 9f3d 62ad 9e3e
000001e0: cf2c 193e c057 60bd 5cb3 fa3c 3157 553c
000001f0: c058 a83c e378 aebd d8af 80bc 5181 a0bd
00000200: 60b0 863c 1ce4 b5bc 3925 083e 07c4 abbe
00000210: f753 24be cfb5 51bc f127 ea3d d5ef 353d
00000220: 0464 26be 3e3d 623c 0576 213e f86a 893d
00000230: d1a0 6c3e 2fbd 22be 3de3 b4be 026e 4e3e
00000240: 5aea b83d 403c 07be a7d1 ad3c f62d e7bd
00000250: bddd c9bd c2db 133e e9f2 e0bd 3f31 0cbe
00000260: 9e14 04bd 0bf4 9abe 74ae 673e e879 df3d
00000270: 25c3 d13e d01b 40bc 4e35 19be 3969 ec3d
00000280: 04be 8b3d 387f 61be 9a0e 94be f1d5 c4be
00000290: 34d1 8c3e fbe1 abbe 90a9 873e a2da f3bd
000002a0: aa1a 033e 89b3 52be 01c3 b23b f68c 08bd
000002b0: 9eda 1cbd 6126 0a3e c708 34be cb15 25be
000002c0: 8ae1 33be 67c6 933e ad74 8e3e 6d10 22be
000002d0: 377d 993e ce1d c93e d6c1 10bb bce0 9d3d
000002e0: e2b1 f73d 9f7e c5bd 7d68 bb3d 7d9c 543d
000002f0: 83e5 76be 474e 04be e17c a63e b59e bc3d
00000300: 617a b13e e901 b03d a15d 92bd 69f8 0c3e
00000310: 50b4 813e b647 43be 4dc4 21be 8765 70be
00000320: b9e8 d0bc 3cfa bc3d 5725 6e3e deed 23bc
00000330: 28e2 603f 30c1 fa3c eea4 c0bd c95e 263d
00000340: bd81 a7be 0f17 883e 0736 9fbd 1784 cdbd
00000350: 4900 11be fecf edbc 05b6 e03d bf5d 603d
00000360: 1203 853f 5c49 a8bd d61a 283a bc6a 0fbe
00000370: 025f a03a 8600 cabd b6ec 61be 98ff ebbd
00000380: 43d7 d6bc d934 a53d 8aef aa3d f283 71be
00000390: e1f2 263f c569 8bbe 30c7 0dbd ec79 cc3d
000003a0: 3ded b3bd 5b8c f53e 3e81 efbc c555 963e
000003b0: 076a 503d 82a3 1c3f aa86 183e 2e42 59be
000003c0: 2176 ab3e fc01 043e 5a5d b2bc e91f 96bd
000003d0: a88b a1bd a7b7 57be 4c11 ecbe 61a6 b1be
000003e0: 29d3 09be a0a6 073f 4819 58be 4afe adbe
000003f0: 686a 013d 6419 d2bd e0ee 8dbd 2da7 aebd
0.41858009 0.01724425 -0.0769063 -0.1236791 -0.016703382 0.16003196 -0.01931823 -0.03389305
0.25434604 0.2480364 -0.5487678 0.06322669 0.023276035 0.08512018 0.021549242 -0.02342465
0.022224244 0.26880026 -0.020212492 -0.110536136 -0.6303195 0.4381421 0.40307683 -0.1633914
-0.12029888 0.15316983 -0.15969148 -0.008960476 -0.018214187 0.091852635 -0.21118633 -0.102589555
-0.028367106 0.33367983 -0.023135878 0.04369981 -0.1629411 -0.036942575 -0.027139781 -0.03405624
0.02647067 0.3346284 0.045065515 0.063640855 0.020454803 0.54211056 0.24001186 -0.37660924
1.1872686 0.017353013 -0.02081031 0.018778391 0.048779722 0.09909017 -0.05880502 -0.05360529
0.21390544 0.5762624 0.09959569 -0.42541307 0.20134096 0.08462245 -0.00013298573 0.048878808
0.13942827 0.065675065 -0.018184448 0.041719213 -0.1568832 0.017205833 0.009370462 -0.41199455
0.030776042 -0.1886714 0.02202417 -0.09312497 -0.25313717 0.2114863 -0.2980024 -0.4941308
0.16999918 -0.22379115 -0.2407713 -0.039589062 -0.17734544 0.05053922 0.0021829847 0.15026331
9.718398e-05 -0.037974667 -0.29076034 -0.19799423 -0.24708936 0.07011015 -0.2761551 0.012419958
0.2979275 -0.103094615 -0.08786801 0.04299074 0.0475015 -0.36908117 -0.50978535 -0.3437743
-0.24985184 -0.3555053 -0.021702966 -0.27183118 0.030476112 0.18172017 0.08916788 0.046272594
-0.14120834 0.41447142 -0.08581235 -0.04775688 -0.06037935 0.033157613 0.07791776 0.30991656
0.149585 -0.054771185 0.030603103 0.013021276 0.020550132 -0.08519151 -0.015708849 -0.07837165
0.016441524 -0.022203498 0.1329545 -0.33547994 -0.16047655 -0.012799694 0.114333995 0.044418175
-0.1624909 0.013808547 0.15767677 0.06709856 0.23108222 -0.1589248 -0.3532962 0.20159152
0.09029074 -0.13206577 0.021218134 -0.11288063 -0.09856746 0.144393 -0.109838314 -0.13690661
-0.032246225 -0.30264315 0.22625142 0.10911924 0.40969196 -0.011725381 -0.1496174 0.11543507
0.06823352 -0.22021186 -0.2891739 -0.38444474 0.2750336 -0.33570847 0.26496553 -0.11906935
0.1280314 -0.205763 0.005455375 -0.033337556 -0.038294427 0.13491203 -0.17581473 -0.16121595
-0.17566505 0.28862306 0.27823392 -0.15826578 0.29978344 0.39280552 -0.0022088191 0.0770888
0.12094475 -0.09643292 0.09150789 0.05190705 -0.2411099 -0.12920485 0.3251715 0.092099585
0.3466368 0.08594114 -0.071467645 0.13766636 0.2533288 -0.19070324 -0.15797539 -0.2347623
-0.025501596 0.09227416 0.23256432 -0.010005442 0.8784509 0.030609697 -0.09406458 0.040617738
-0.3271617 0.26580092 -0.07773977 -0.1003496 -0.14160265 -0.029029842 0.109722175 0.054776903
1.0391562 -0.08217117 0.000641269 -0.1400556 0.0012235346 -0.09863381 -0.22062954 -0.1152336
-0.026225692 0.080667205 0.0834647 -0.2358549 0.65214354 -0.27229133 -0.034613788 0.09984192
-0.08785484 0.47958645 -0.029236432 0.29362312 0.050882366 0.61186993 0.1489512 -0.21216652
0.33488563 0.12891382 -0.02177303 -0.07330305 -0.078879654 -0.21066152 -0.46106946 -0.3469725
-0.13459457 0.52988625 -0.21103394 -0.3398307 0.031595618 -0.10258749 -0.069303274 -0.0852798

lstm.weight_hh_l0 f4 [256, 64]
00000000: 0694 d53e 8bbb 0fbe 3f14 24bd 21c8 38bf
00000010: 9625 673d c27d 943e 4e26 1bbf 1cc6 463b
00000020: c6d4 8dbe fdfc 85be e8db ac3e cfc0 683f
00000030: 4599 6b3d c144 b2bd cc41 d4be bf7a 403e
00000040: b627 be3d 97a8 9cbe 817c a83e 96bf 883d
00000050: af84 063f 19ad 903e 272d ae3e 5db3 d33e
00000060: 79f9 01bc 2b7e 15bf c0e5 54be 6ccd 56bc
00000070: e7eb e03e 722a 053f bdcc f83d f32b bfbe
00000080: 1b26 9d3e 1845 3d3f 75d6 583d b937 5c3d
00000090: 4f9f 1a3d bf7b 49bc c7d4 b6bd 3380 523f
000000a0: 8337 3c3e ae11 953e 95b3 74bd 37c7 93bd
000000b0: 6684 12bf 7a86 aebd e175 9e3d bab3 133f
000000c0: d158 bc3d bad2 11bf d51b 81be 28f5 9c3d
000000d0: 53d6 963e cc9b 0b3f 7de2 f6bd 1286 6dbd
000000e0: c002 a93e 6773 d33e 88e6 8dbe ee29 53bf
000000f0: 045a 2bbf 6c06 103e be4f bb3d 0826 013f
00000100: 8eab a43d b656 3fbe 9695 a3be 6b56 fe3e
00000110: 5f7a e7bd 205a c23e 1189 87bd c463 f3bc
00000120: 8bf6 ab3d 6413 07bf b6bc 423c ced7 063d
00000130: e898 b7bd 7748 3b3d 77b9 8bbe 8949 0f3f
00000140: 1898 783d 2c7b 16bf f30a b53e 088e 883e
00000150: 9190 b0bc 258a c53e 3c0c 3b3f 0497 02bf
00000160: 1416 cf3d fd66 86be 51f6 113e d50a 5c3e
00000170: 8e1f 0cbd 332d 7bbd 199e 5f3d 88fe 01be
00000180: 648a bc3e ced9 653e a9f4 a7be 64eb 993e
00000190: 54c1 b33d cc26 54be de5b babe 54a0 df3e
000001a0: eaae 9dbe 4245 b8bc 64c6 34bd 605d 443e
000001b0: 1106 74be 8f30 a6be b8b8 13be 3299 d93d
000001c0: 21c5 9ebd 6a2d 1b3e 0cd5 d5be a9a8 9cbc
000001d0: e040 cc3e a424 8ebe 4eed ec3e 0fb7 02bd
000001e0: 9c2c 9fbe dabe 1b3e 68e6 bc3e eb7d b33e
000001f0: 3a95 ce3e de98 f7bc f5fe 4e3d 057c 5dbb
00000200: cc1b c83e 8320 b5be 02be c0bd 7baf b4be
00000210: 8424 093d 85c9 db3e 9a71 903d 45c5 50bd
00000220: 700f 0dbf 3941 09bf 2a76 c0be 3804 053e
00000230: a5c4 52be b2e6 bbbd 35d1 88bd 0afb 8d3d
00000240: 24b4 7b3d 074c d13b 6369 be3e 78fe b0be
00000250: 668f dcbd 1e99 78bd 3713 de3d 4442 d13c
00000260: ac44 23be 1947 acbe 47ef c23c fc26 e2bd
00000270: 0f0f dabe 253c bf3d 6f92 2b3e 3b45 e9bd
00000280: bb7e 35be 5b45 063e af2c f73c 8847 23be
00000290: 2bc4 d9ba 6a45 4e3f 2d2f da3b 47a7 d3bd
000002a0: d5ac 6a3d 5e33 0abe 3645 4d3d 90ff 5abe
000002b0: 8f7d e2be 329b 22bd a0ce aabe b07e f23e
000002c0: 66e6 17be b7ad 96be 8281 39bd 9b8c 533e
000002d0: 6295 91bd 43c0 edbd 87f4 763e 6c35 7e3e
000002e0: 7cdf fa3d 3804 c6bd 8526 e3bd 9e0f 40bd
000002f0: 38bb b93d 6686 8dbe e10a 8cbe be68 083f
00000300: c015 4cbe 1198 483e 86d8 28be 70f7 92be
00000310: 6ea7 5c3e ebc0 a5bd 24dc 3c3e d420 903b
00000320: 26de 71bf cc40 86bd f164 41bb 41a0 4c3f
00000330: a3ae 733e 5cc9 b0be f404 553d dcbb e1bd
00000340: d3d9 033e 8901 ddbe 4c28 0bbb 0a31 1c3c
00000350: 22aa 383e 1222 4cbe de09 9a3e b0e6 ddbe
00000360: 0e02 d7be 748a dd3d 39da 0abe c3b9 6fbd
00000370: b39f 24bf 1cc2 1a3e 3a11 3cbe 3777 52bd
00000380: 2cb0 f0bd cc5b 073e 7e67 0abe 7b4d dd3d
00000390: 1c35 113d 004e 1cbb d598 283e 7d23 8abd
000003a0: eac9 893d 16f2 f33d a604 f53d a73b f4bd
000003b0: ca66 dabd 0caa 9cbe 9db8 953d 8272 9b3c
000003c0: 102f 75be 30c6 89be 43bd f5bc a3af 483e
000003d0: 4b24 c13e 2646 a1bc e7eb 563e fac7 aabe
000003e0: e898 413e b5b5 4a3e ed0e 6a3d ce85 813e
000003f0: bc23 5ebe d369 40be 6b1a 813d 47e2 ee3d
0.41714495 -0.14036386 -0.04005837 -0.7218037 0.05643233 0.29002196 -0.60605323 0.0030330485
-0.27701396 -0.26169577 0.33761525 0.909192 0.057519216 -0.0870452 -0.4145645 0.18796824
0.09284918 -0.30597374 0.3290749 0.06677167 0.5254621 0.28257063 0.34018824 0.4134778
-0.007933014 -0.5839564 -0.20790768 -0.0131105 0.4392998 0.5201789 0.12148426 -0.37338218
0.30693135 0.73933554 0.052938897 0.05376408 0.037749585 -0.01229757 -0.08927303 0.82226866
0.18380551 0.2911505 -0.059741575 -0.072157316 -0.57233274 -0.08521743 0.07737327 0.57696116
0.09196628 -0.5696217 -0.25216547 0.07663947 0.2946039 0.545346 -0.12054918 -0.057989188
0.3300991 0.41298983 -0.27714944 -0.82485855 -0.6693423 0.1406495 0.09146069 0.50448656
0.08040534 -0.18685421 -0.31950063 0.49675307 -0.11302637 0.37959385 -0.0661794 -0.029710658
0.08396634 -0.5276396 0.0118858125 0.03292065 -0.089647114 0.045723405 -0.27289936 0.5597158
0.060691923 -0.58781695 0.35359916 0.2667086 -0.02155331 0.38581958 0.73065543 -0.5101168
0.10111633 -0.2625045 0.14254119 0.21488507 -0.03420978 -0.061322402 0.054594133 -0.12694752
0.36824334 0.22446367 -0.32803848 0.300624 0.08777109 -0.20717925 -0.36398214 0.43677008
-0.3079751 -0.022493962 -0.044134513 0.19176245 -0.23830439 -0.32458922 -0.14425933 0.10624923
-0.07752443 0.15154043 -0.41764104 -0.019123392 0.39893246 -0.2776233 0.462748 -0.03191286
-0.31088722 0.15209523 0.36894536 0.35057005 0.40348226 -0.03022426 0.050536115 -0.0033795845
0.39083707 -0.35376367 -0.09411241 -0.3529013 0.03348209 0.42927185 0.07052918 -0.05096938
-0.5510168 -0.53615147 -0.37590152 0.1298989 -0.20582826 -0.09174861 -0.06680528 0.069326475
0.061451092 0.006387237 0.3718978 -0.34569144 -0.107695386 -0.0606929 0.10843509 0.025544293
-0.15944165 -0.33647993 0.023795737 -0.11042592 -0.42589614 0.093376435 0.16755079 -0.11390158
-0.17724125 0.13112395 0.030172674 -0.15945256 -0.0016614249 0.8057467 0.006658456 -0.1033464
0.05729373 -0.13496158 0.050114833 -0.21386552 -0.4423642 -0.039698787 -0.33360767 0.4736228
-0.14833984 -0.2942941 -0.045289524 0.20659105 -0.07108571 -0.11608937 0.24116717 0.24825066
0.122496575 -0.096687734 -0.110913314 -0.046889894 0.09068912 -0.276416 -0.2735205 0.53284824
-0.19930172 0.19589259 -0.16488847 -0.28704405 0.21548244 -0.08093437 0.18443352 0.0043984447
-0.94479597 -0.06555328 -0.0029509629 0.7993203 0.23797087 -0.34528625 0.052006677 -0.110221595
0.12876062 -0.43165234 -0.0021233736 0.009533176 0.1803365 -0.19934872 0.30085653 -0.43340063
-0.41993755 0.108174235 -0.13559808 -0.058526766 -0.6430618 0.1511311 -0.18365946 -0.051383223
-0.11752352 0.13218611 -0.13516042 0.10805794 0.03545104 -0.0023850203 0.16464551 -0.0674505
0.06727965 0.119114086 0.11963777 -0.1192544 -0.10664137 -0.30598485 0.07310603 0.0189755
-0.23943734 -0.26909018 -0.029997474 0.1959825 0.37723002 -0.01968677 0.20988427 -0.33355695
0.18905985 0.19795878 0.05714314 0.25297397 -0.21693319 -0.18790369 0.06303867 0.11664253

lstm.bias_ih_l0 f4 [256]
00000000: 080a 82ba 358f 5fbe 56cc d0bd ab47 913e
00000010: 4978 d23e 6207 d3bd 089f 813d 9019 78be
00000020: cba8 883e 5c5e 1e3e b174 43be 63a6 2f3e
00000030: 0c5f 5fbd 9b8d ad39 0350 bbbe 78be fe3b
00000040: f6e2 a73d 6519 33be c7f9 45be bb25 013f
00000050: c819 9a3d 5274 2a3d 537f d5bc a966 93bd
00000060: ec6b 32be 4fd9 803e ae07 6bbe 589a 56be
00000070: 3be4 c3be e01c 053c c001 75be e7a4 f5bd
00000080: 21be 72bc 5b2c 193e 4e16 29bd 4edd 04be
00000090: ceb9 e7be 3ef4 ec3e 0fe0 753d 3f18 6e3e
000000a0: 9cdd ecbd 016e f93c e65d 97be 14a2 b5be
000000b0: e368 8f3a 65b0 48bd 534c 1c3e 0bbc af3e
000000c0: 88c0 7fbc e303 6dbe b9f3 713e 944c a2be
000000d0: cb7f f4bd 9cb0 b3bd 991c 203e f4db c0bd
000000e0: 49e7 febd f0aa 0dbe bc56 ae3d 95fb f43e
000000f0: 6ea7 39be e87d 183d a5c8 1dbe 8b7c 883d
00000100: 5644 633d b923 253d a420 07be b7e4 0bbe
00000110: 757e 4bbf a727 2a3e 8470 98be 907a 15be
00000120: d6e7 4fbe 8e25 b2be 5762 ad3e 9558 fb3d
00000130: 9520 e63d 6f55 00bf 474f 723e 3490 01bf
00000140: df98 86be 24dd 903e 834e 013c 13cf d1be
00000150: 49ee c2be d496 62be 6712 3abe 48cc e6bd
00000160: 4d28 c5be 3f74 a3be 440a c9be 9496 3a3e
00000170: c485 073e 6cdb 15bf fadd 34be 29da 523d
00000180: 144c 94bd f990 3fbe e076 dc3d 04b8 533e
00000190: c9c8 693e 2340 04bf b262 a53d 76a6 01bf
000001a0: c9f6 84bc d0d0 9a3e 5b0b 02bf ef07 71be
000001b0: 12fd 85be f5f5 fbbe c090 c43d 52ce eebe
000001c0: f18f 20bf ed60 66be d3c2 25be 74e6 febe
000001d0: 83c6 4b3d 7e29 c5be ac0d 75be 50a9 b4bc
000001e0: 7b38 533d cd5c 913e 65e7 eebc dfb5 bdbe
000001f0: e268 7a3e 36d4 35be a2eb f7be 0fd9 dfbd
00000200: 7ddb 4cbe 0538 343e fca3 16bd 6ed1 373c
00000210: 7d90 bd3c 81f2 fdbd ad79 b33c 2e42 2ebc
00000220: 726c 1f3d 5ea0 6a3d 94a5 2c3e 6a46 a63d
00000230: 9aac d83d 8b74 8d3d 97ab 80bd c618 3fbe
00000240: 60ac 6dbd 90ff e7bd 9667 eabd 7e4a 3abd
00000250: 7610 55bc 6979 18be 7f86 41be a584 d53d
00000260: 7b33 29be e4f0 853d c7c8 a63c 8092 c93d
00000270: c800 833e 4412 40bd 40c3 9e3d 2f27 f9bd
00000280: aa61 633e 83cd 5a3c 5e0e 0bbc 3b77 1d3e
00000290: ac0a 6c3d 5845 17be 7cbc 363d 4a56 3bbb
000002a0: 1fe0 9b3d 5497 a13d d475 6fbd 58df 67be
000002b0: 3d55 493d 6483 34bc 4e6b a13e f533 e6bd
000002c0: 6864 85bd 84dc 303d 1723 043e cab6 16bd
000002d0: 85ff ccbc 3e34 65bd 4f4b 5bbd 9671 27be
000002e0: 7a56 efbd a316 41bd 1515 51bd edea 873d
000002f0: 1d2a 1d3e acaa 123c 0300 42bd 990b fd3c
00000300: a7b6 b63d 188e 31be 5308 e0bd 2ccb 88bd
00000310: d86a a93e 6e38 a5bd 3148 c93d bb06 6d3d
00000320: 69c3 833e 9c03 b93d db33 793d fd67 183e
00000330: e98a 1f3e 7564 ce3d 7862 32be 8a13 74bd
00000340: dc4d cbbc 84e6 923d d0b1 4ebd 5bfa 593f
00000350: 34ec 853e c497 46bd 0285 9e3d fa4e 9dbd
00000360: d843 43be fe21 f13e 56ef 3ebe 903e a63d
00000370: 0c35 78bd 1e64 12bd aa71 01be da63 9f3d
00000380: 72b1 13be 0508 3a3e f60b a1bd 6841 dfbd
00000390: 6ccb 973d 2eb4 a9bd 88c9 08bc c393 a73e
000003a0: 7d2f 25bd bb68 26bd fe2c 6cbe 047d 29be
000003b0: 93c7 c73c eb23 dabd 9e7c 5c3d dfb1 873e
000003c0: 8877 e53d a63b 4dbd d38f 003f 5634 8cbe
000003d0: fbf6 18be fdc9 51bd f073 2cbd 7c03 04bd
000003e0: 2b04 4fbd 3d8c 92bd 8408 b9bd 710b b63e
000003f0: 7e7d 1bbd adcc d13d aa50 82be dfc2 653d
-0.0009921202 -0.21831973 -0.10195224 0.2837499 0.41107395 -0.103041425 0.06329161 -0.24228501
0.2669128 0.15465683 -0.19087483 0.17153315 -0.054534003 0.00033102636 -0.36584482 0.0077741705
0.08197586 -0.17490156 -0.19333564 0.504482 0.07524449 0.041614838 -0.02606169 -0.07197315
-0.17423981 0.25165793 -0.22952148 -0.20957315 -0.38260064 0.00812456 -0.23926449 -0.11994343
-0.014815838 0.14958327 -0.041281037 -0.12975046 -0.45258945 0.46280092 0.060028132 0.23251437
-0.11565706 0.030447962 -0.29563826 -0.35475218 0.0010941293 -0.048996348 0.1526349 0.34323153
-0.015609868 -0.23146014 0.23628129 -0.3169905 -0.11938437 -0.0877392 0.15635909 -0.09416953
-0.12446458 -0.13834739 0.08512637 0.47848192 -0.18130276 0.03722945 -0.15408571 0.0666438
0.055485092 0.04031727 -0.13196045 -0.13661467 -0.79489833 0.16616689 -0.29773343 -0.14597535
-0.20303282 -0.34794277 0.3386409 0.12272755 0.11236683 -0.5013036 0.23663054 -0.5061066
-0.26288506 0.28293717 0.007892254 -0.40978298 -0.38072422 -0.22127849 -0.18171082 -0.11269432
-0.3850731 -0.31924626 -0.39265645 0.18221503 0.13234621 -0.58537936 -0.17662802 0.051477585
-0.07241073 -0.18707646 0.10764861 0.20675665 0.228305 -0.51660365 0.08075465 -0.50644624
-0.016230958 0.30237436 -0.5079858 -0.23538183 -0.2616964 -0.49211088 0.09597921 -0.46641785
-0.6271964 -0.22497912 -0.16187601 -0.49785197 0.049749862 -0.3850822 -0.23930997 -0.02205339
0.051567536 0.28391114 -0.029163072 -0.3705282 0.24454072 -0.17756733 -0.4842196 -0.109300725
-0.20005603 0.17599495 -0.03677748 0.0112193655 0.023140186 -0.123997696 0.021908605 -0.010635896
0.03892178 0.057281844 0.16860038 0.08118899 0.10579796 0.069069944 -0.06282728 -0.18661794
-0.058025718 -0.113280416 -0.11445539 -0.045481198 -0.013004413 -0.14890064 -0.18898962 0.104256906
-0.16523544 0.06540087 0.02035941 0.09842396 0.25586534 -0.04689242 0.07752085 -0.12165677
0.22205225 0.013354662 -0.008487312 0.15377514 0.057627365 -0.14772546 0.044613346 -0.0028585368
0.07611107 0.07890192 -0.05846198 -0.22643793 0.049153555 -0.011017654 0.3152718 -0.11240379
-0.065132916 0.04317905 0.1290401 -0.036795415 -0.025024185 -0.055958025 -0.053538617 -0.16351923
-0.11686416 -0.04714073 -0.051045496 0.066366054 0.15348096 0.008951824 -0.047363292 0.03088932
0.08921557 -0.1733936 -0.10939088 -0.06679377 0.33089328 -0.08067404 0.098282225 0.057867747
0.25735024 0.090338916 0.06084047 0.14883418 0.15580334 0.100777544 -0.17420375 -0.059588946
-0.0248174 0.071728736 -0.050462544 0.8514764 0.2615677 -0.04848458 0.07740213 -0.07681079
-0.19068849 0.47096246 -0.18645987 0.081174016 -0.060597464 -0.03574001 -0.12641016 0.07782717
-0.14423159 0.18167122 -0.078636095 -0.10901147 0.074118465 -0.0828632 -0.00834883 0.3272992
-0.04032849 -0.040627223 -0.23064038 -0.16551596 0.024387157 -0.10651382 0.05382978 0.26502892
0.112044394 -0.050105713 0.5021946 -0.2738368 -0.14937966 -0.05121802 -0.042102754 -0.032229885
-0.050541084 -0.071556546 -0.09034827 0.35555604 -0.037961476 0.10244117 -0.25452167 0.056094047

lstm.bias_hh_l0 f4 [256]
00000000: 0d3c f8bd 65b0 51be 3ab4 d1bd 3ccc 543e
00000010: f9e3 ed3e d148 9dbe 9fcc 0b3d f007 9bbe
00000020: a2d2 0a3e 4814 343e c524 0cbe 7b22 443e
00000030: f4e8 11be b101 043e a5cb cebe b231 163e
00000040: 722f a93d ad04 22be 2d77 92be dfc0 f43e
00000050: 54ae 023e de0e 43be 0352 d13d 131f 04be
00000060: 92b7 66be 71b0 b43e cc26 11be c4ef 21bd
00000070: 0c52 51be 3066 3cbe 2c1a bcbd b4e7 74bd
00000080: d978 3ebd 20c5 b83d 608f c63b 7239 6fbe
00000090: de16 72be a667 e33e 1047 d4ba 3e55 c13d
000000a0: f16f c7bb 968b 903d 14ac 9abe dc8d 83be
000000b0: e5d9 293e cb91 8fbd c9f6 383e f3c2 5c3e
000000c0: 5364 8b3d 276c f4bd 4c5d 173e 21ab 21be
000000d0: 36a1 4cbe 9919 58bd 6b55 233d af8f 0bbe
000000e0: 619a 43bd 6618 4abe b907 e73c 6d08 073f
000000f0: 9c39 56be 6592 4b3b 63b9 57be afeb f83d
00000100: 9dbc 01be d541 483d e4ad 15bd d8c4 3b3c
00000110: 434d 63bf 1db6 2d3e 2cc2 cebe fc75 3cbe
00000120: d53d 83be cd73 79be cd14 8c3e 5bc5 973e
00000130: eceb 55bd 07f9 09bf 4d55 003e 90ac cebe
00000140: 2767 8dbe 42a6 903e 6afb 02be 0ef1 5fbe
00000150: 136b dbbe a8f6 21be ad70 21be 730a dd3c
00000160: ee6a 7ebe e147 ddbe 02e2 b2be f6a3 703e
00000170: b81f 663e 8f13 24bf 786e abbd 8a10 a23d
00000180: d547 03be af23 7cbe b6f0 ad3e 141b 713d
00000190: 6d8b eb3d a521 e4be b63b 573d 2589 c8be
000001a0: 241c c0bd 3c47 503e a1f7 09bf c136 6abe
000001b0: 4e8b 88be 29da f2be 5ade 5bbd c7d3 09bf
000001c0: 150e 45bf c2f7 87bd 8856 bcbe e589 b3be
000001d0: 15e1 0dbe 6a4f d9be 18ef 5bbe 7350 283e
000001e0: 57e0 f93d 6a0e c43d 410a cdbd 2923 b4be
000001f0: ad74 c03d 702f 5cbe bed1 e3be d934 a6bd
00000200: 2184 14be 8991 593e 2953 6dbd 4e01 20be
00000210: 68d2 d73d f8a0 62be a26a 26bc 6474 083d
00000220: 53ab d03d 5a51 dfbc 1e4c 353e 2052 bc3d
00000230: ccdf 2e3e 9560 053d 6747 25be 46f3 ccbd
00000240: d4e3 fabc 145e 283d 7037 16be 83a6 ef3d
00000250: 8411 abbd d0ee 30be 813b 0bbe 3f09 ed3d
00000260: b28d 603c afd3 973d 3c3c ecbc d2c1 c53d
00000270: a522 0c3e 7409 4f3d cbdd f63d a5ba d03d
00000280: beed b13d 0f75 923d 0afd 27bd d4e1 b43d
00000290: dabe ebbd f869 2bbe f4e1 b3bd ab01 44bd
000002a0: eaf3 d83d f62b 583c 2004 4ebd ee02 0bbe
000002b0: a652 053e a1cc 243d 56df 953e 60bd 3dbe
000002c0: 3b98 243d e10c c33c 0340 a33d e78a 063c
000002d0: ac7a 993b ac8f 34bc b052 bcbd fe3f 67be
000002e0: 3e4e 593c 5419 7c3c a2cc a33d 5d1f f0bd
000002f0: ef4c 163e cab6 0c3e 8209 f9bc dc90 853d
00000300: 8d68 c1bd 04e8 bebc 1f96 8abe f97b 2bbe
00000310: a3fa 063f 622d f63d 32cc 1e3d f3c8 78bd
00000320: d900 113e faec 6f3e 2960 b9bd b763 733e
00000330: c333 c23d bde9 9c3d 7a8e abbd aec0 193e
00000340: 9ddf e6bd dc28 a23c 7032 863d 7502 3e3f
00000350: 74cc 973e 44a5 61bd 0587 b43d 60ed a93c
00000360: 98a6 71be d404 2a3f 5f98 e9bd 8663 b83d
00000370: 4166 c83d e531 5fbe 48e5 39be bd46 103e
00000380: 64c1 5cbe 8862 a93e 2a82 b0bd 19ba 03be
00000390: bbd8 3dbd 569b 813d b63a 0a3e 5332 be3e
000003a0: 34ed 84bd b73e 053e 602c 4fbe e41f 38be
000003b0: 2bef ff3c 76a8 c73c aabe 163e f304 3d3e
000003c0: 1542 cebd da47 8dbe d5bc e13e 5475 93be
000003d0: 09a5 1ebe 3ced fbbd 6666 80bc f3ab 9dbd
000003e0: f759 67bd 3e9d 81bd 83f9 32bd 5137 9b3e
000003f0: e9c5 f639 f2a0 713e ff52 e1be 838e b83d
-0.12120829 -0.20477445 -0.102394536 0.20781034 0.46462992 -0.30719617 0.03413069 -0.30279493
0.13556913 0.17585862 -0.13685901 0.19153778 -0.14249021 0.1289127 -0.40389743 0.14667395
0.082610026 -0.15822096 -0.2860655 0.478034 0.12761813 -0.1904864 0.102207206 -0.12902479
-0.22530964 0.35290864 -0.14174956 -0.0395353 -0.20441455 -0.18398356 -0.091846794 -0.05979128
-0.046501968 0.090219736 0.006059572 -0.23361757 -0.23641536 0.44415015 -0.0016195495 0.09440087
-0.0060863425 0.07057874 -0.3020941 -0.25694168 0.16587026 -0.0701023 0.18062891 0.21558742
0.06806245 -0.11934691 0.14781684 -0.15787937 -0.19983372 -0.052758787 0.039876383 -0.1362903
-0.04775465 -0.1973587 0.028201925 0.5274723 -0.20920414 0.00310626 -0.21066813 0.12154328
-0.12669607 0.048890907 -0.03654279 0.011460505 -0.8878977 0.16964002 -0.40382516 -0.18404382
-0.25633112 -0.2436058 0.2735962 0.29642758 -0.052226946 -0.5389561 0.1253254 -0.4036603
-0.27617761 0.28251845 -0.1279122 -0.21869299 -0.4285513 -0.15816748 -0.15765639 0.026982522
-0.24845478 -0.43218902 -0.34938055 0.23500046 0.22473037 -0.64092344 -0.083706796 0.07913311
-0.1282037 -0.24622987 0.3397271 0.058863714 0.11501203 -0.4455692 0.05254718 -0.39167133
-0.093803674 0.20339674 -0.53893477 -0.2287245 -0.2666878 -0.47432068 -0.053678848 -0.5383877
-0.7697461 -0.06639053 -0.36784768 -0.35066143 -0.13855393 -0.424434 -0.21477926 0.16436939
0.122009926 0.09573062 -0.100117214 -0.35183075 0.09397254 -0.21502471 -0.44495958 -0.08115549
-0.14503528 0.21246924 -0.057940636 -0.15625498 0.10538179 -0.22131717 -0.010157259 0.033314124
0.101889275 -0.027260471 0.17704818 0.091953516 0.17077559 0.03256281 -0.16140519 -0.10007338
-0.030626215 0.041105345 -0.14669585 0.117016815 -0.0835295 -0.172786 -0.13596918 0.11574029
0.013705658 0.07413422 -0.028837316 0.09656109 0.13685091 0.050546125 0.120540224 0.101918496
0.08687924 0.071512334 -0.0410128 0.08832136 -0.115110114 -0.16739643 -0.087833315 -0.047853153
0.10593398 0.013194075 -0.050296903 -0.13575336 0.13019809 0.04023421 0.29271954 -0.18529272
0.04018424 0.023809852 0.07971194 0.008211828 0.004683813 -0.011020582 -0.09195459 -0.22583005
0.013263283 0.015386898 0.07998015 -0.11724732 0.14677785 0.13741603 -0.030400041 0.0652177
-0.094437696 -0.023303993 -0.27067658 -0.1674651 0.5272619 0.12020375 0.038768955 -0.060738515
0.1416048 0.23430243 -0.09051544 0.23768507 0.09482529 0.076617695 -0.083767846 0.15014908
-0.112731196 0.019794874 0.06552589 0.742225 0.29648173 -0.05508925 0.088148154 0.020743072
-0.23598707 0.6641362 -0.114060156 0.090033576 0.097851284 -0.21796377 -0.1815387 0.14089485
-0.21558148 0.33082986 -0.08618577 -0.1286396 -0.04634927 0.06328456 0.13498959 0.3714777
-0.064905554 0.13012205 -0.20231771 -0.17980915 0.031241974 0.02437232 0.1472117 0.18458919
-0.10071198 -0.2759388 0.4408938 -0.28800452 -0.15492643 -0.12301108 -0.015673827 -0.07698812
-0.05648228 -0.0632882 -0.043694984 0.3031564 0.0004706823 0.23596552 -0.44008633 0.09011557

lstm.weight_ih_l1 f4 [256, 64]
00000000: f0fb c0bc f772 f53d acc9 45bd 78a5 93bb
00000010: 37f3 c4be 7972 223e 64f2 dabe a52b 32be
00000020: 2131 8dbe bacd 23bf b15a 9bbe c440 d93e
00000030: 6363 3e3e 705e 673d b29d 6c3e 2edd 0a3e
00000040: 8b82 78bd 2680 ad3d 2f8e 6f3f 071b 49bd
00000050: 2930 013f 6fe2 ff3d f5bd 3d3e 21ed be3e
00000060: 5453 50bd 6340 3dbf 7973 403e 0a43 0a3c
00000070: ee2c 4b3e 1983 9dbe ee15 57bc 5d3a 2b3e
00000080: 182a 793e 95e8 823e 744b 0abe 3e30 413d
00000090: af81 4cbe 8ac8 b83d ba10 f1bd ce59 193f
000000a0: d60f dd3d 5889 213c d037 923d 4bf9 453e
000000b0: 61eb 3abf 291b 8e3d 17e8 9abe 14ba b93e
000000c0: 305b 103e adae 46be 8c34 f2be d72f 123d
000000d0: 5ac2 893b ff90 e03e 0218 4b3e 5b12 4f3e
000000e0: c04d 923e 6687 2f3f 72dd eb3d c9df f3bd
000000f0: 303f c4bc 0d76 5bbe dac6 e6bd c1f7 ebbe
00000100: faad 893e 87f0 71be ccff 9b3b 1452 04be
00000110: cf60 a53e b9a8 a43d 98ea 27be 16f0 26bd
00000120: 261b 2fbe d37c dfbd 1ecd 33bd b019 903e
00000130: e973 75bc 148a 3fbe d2eb ddbd 9335 33be
00000140: 5efe 393e d5b6 983d 2547 b83d 4290 413e
00000150: 2c93 b63e 0318 5b3e b381 833b 7e96 54be
00000160: 2979 7f3e 65d7 8cbe 134b 89be f862 c53d
00000170: 4a31 7ebd b023 bfbd 6280 9fbd b913 6ebd
00000180: f93a 613d f3ca 673e 5f2f fd3b ad32 89bc
00000190: 5135 afbc 3223 4abd 86ca 6dbc be92 e73e
000001a0: 7c7d 833e 3cf7 13be dd67 aabc d11a 04be
000001b0: 325f edbe bc26 0e3d 8404 133e f945 26bc
000001c0: 9792 81be f965 0cbe 4bd4 87be fd6a 8d3e
000001d0: 5bb5 2cbe 1b98 30bc 4a15 25be 2c2d f83d
000001e0: e502 f33c 5d6e 3e3e 7f41 8dbd 1bf2 a5bd
000001f0: 9aeb 2f3e 50d7 23bd 9005 c1bc dbae 4cba
00000200: 6c7e 30bd 9c2f 1fbe b147 ce3e 46d1 383e
00000210: 5a5a 01be d874 0dbe fe71 423e a065 433e
00000220: 1386 0bbd 77e4 86bd 6fa5 233e 5f6e 32be
00000230: 4626 7c3b e52f 2d3e 0e1f 70be a96f 873e
00000240: f556 26be 2d76 623d 2b74 4b3e cd26 b4be
00000250: e0f2 e13e 901d 643e 36b9 c23d df32 543e
00000260: 73a2 b3bd 4367 4d3e 9103 223e b9f9 c63d
00000270: cd30 9bbd c27e 49be a7a6 43bd b17e 92be
00000280: 3b75 9b3e 0630 c6bd a433 e03d 0932 a83e
00000290: 0891 a1bd b55c f73e c3a7 0bbd 0c61 d23a
000002a0: c72d ac3c e92e 3c3e a1f1 25bd 5f53 9f3e
000002b0: 00bd e6be 34fb ff3d 4968 943e ff25 673e
000002c0: 2752 973e f8b1 1bbe fa7d bb3e 1a31 dfbc
000002d0: b938 e33d 9b1e 00bd 7cf2 0b3e 0060 3abe
000002e0: 839d 0ebe 41f7 9e3e c4cb c9be a141 ea3e
000002f0: 563e 213e 9fae c9be e9e6 0e3c 0f9f 53bb
00000300: 5f70 213e ae43 abbe 4cc0 2e3e 86fd ec3c
00000310: ef2f 1abc fd90 c13c fd4f 5ebd 49f9 8abc
00000320: 2c3f 5ebe 5aa1 1e3e 884b 1bbe 3884 54be
00000330: e631 54be c29e b5be 64ac d23d 725d 1b3f
00000340: 3951 253d 3a38 06be 42f5 d03d 997c 46be
00000350: f059 f53d fff0 833e c673 03be f238 463e
00000360: 08ac c33e fbb8 c43e 9ce1 2a3e e4df 67bb
00000370: 1cd9 a03e 8e83 173e 9606 ab3b 6a29 0b3d
00000380: 3708 5a3d 666f b83d 86d9 e8bd af9b c9bc
00000390: 4b3d 133d 4ee6 fe3e 67b8 153e 97c4 4abe
000003a0: a32f c2bd e7da a03d 7c81 f6bb a733 163e
000003b0: a02b b3bd 3167 31bc 30aa 4a3d f37a d83d
000003c0: dec3 c5bb a604 e6bd 21a5 643e 63d7 dd3d
000003d0: 2ceb 0dbe d633 50bd 64dd 1bbe e2f8 ecbc
000003e0: 60ff 9c3d 5433 423e 569c 57be 6394 8d3e
000003f0: 2198 05bb 3762 bbbe feb1 2fbe c8b8 abbc
-0.023557633 0.119848184 -0.048288032 -0.0045058094 -0.38466808 0.1586398 -0.42763054 -0.17399462
-0.27576545 -0.6398579 -0.3034263 0.42432225 0.185926 0.056486547 0.23107031 0.13560936
-0.06067137 0.08471708 0.9357633 -0.04909804 0.5046411 0.12494361 0.18529494 0.3729029
-0.050860718 -0.7392637 0.1879405 0.008438835 0.19841358 -0.30764082 -0.013127787 0.16721483
0.24332464 0.2556807 -0.13505346 0.047165148 -0.19971345 0.09022625 -0.117707685 0.59902656
0.10794036 0.009859405 0.07139552 0.19333379 -0.7301541 0.06938774 -0.30255195 0.3627478
0.14097285 -0.19402571 -0.47305715 0.035690155 0.0042040767 0.43860623 0.19833377 0.20221846
0.28574944 0.68565977 0.11516847 -0.11907918 -0.023955911 -0.21431752 -0.11268397 -0.4608746
0.26890546 -0.2362691 0.004760718 -0.12921935 0.32300422 0.08039994 -0.16398084 -0.040756308
-0.171002 -0.1091248 -0.043896787 0.28144598 -0.014981248 -0.18705016 -0.10835995 -0.17500906
0.1816344 0.074567474 0.08997945 0.18902686 0.35659158 0.21395878 0.004013264 -0.20760533
0.24948563 -0.27508083 -0.2681509 0.096380174 -0.062058724 -0.09332979 -0.07788159 -0.058124278
0.05498788 0.22636013 0.0077265943 -0.016747797 -0.021387728 -0.04934997 -0.014513617 0.45229143
0.25681674 -0.14449781 -0.020801479 -0.12900855 -0.4636169 0.03470491 0.14357191 -0.010148519
-0.25307152 -0.13710774 -0.26529154 0.27620688 -0.16866057 -0.010778452 -0.16121402 0.12117991
0.029664466 0.18596788 -0.06897258 -0.081028186 0.17179719 -0.04000026 -0.023562223 -0.0007808038
-0.043089315 -0.15545505 0.4028907 0.18048581 -0.12632123 -0.13814104 0.18988797 0.19081736
-0.03406341 -0.06586545 0.15981077 -0.17424916 0.0038474961 0.16912802 -0.23449346 0.26452377
-0.16244109 0.055288482 0.19868533 -0.35185853 0.4413061 0.22276902 0.095079824 0.20722531
-0.08771219 0.20058922 0.15821673 0.097155996 -0.075776674 -0.1967726 -0.047766354 -0.28612283
0.30362877 -0.096771285 0.1094735 0.32850674 -0.07888991 0.48312917 -0.034095537 0.0016050651
0.021017922 0.1837727 -0.04051364 0.31118295 -0.4506607 0.12499085 0.28985813 0.22573088
0.29554865 -0.15204608 0.3661955 -0.027245093 0.11094803 -0.031279188 0.13666719 -0.18200684
-0.13927273 0.31048015 -0.39413273 0.45753196 0.15746436 -0.39391038 0.008722045 -0.0032290851
0.15765522 -0.33450073 0.17065543 0.028929483 -0.009410842 0.023628706 -0.0542755 -0.016964572
-0.21703786 0.15491238 -0.15165532 -0.20753562 -0.2072216 -0.35472685 0.10286787 0.6068946
0.040360663 -0.13107386 0.10203029 -0.19383468 0.11980045 0.25769803 -0.12837133 0.1935766
0.38217187 0.3842238 0.16687626 -0.0035381252 0.3141564 0.14796278 0.005219291 0.033975042
0.05323049 0.090056226 -0.11369614 -0.024610369 0.035947125 0.49785084 0.14621125 -0.19801556
-0.09481742 0.07854252 -0.00752276 0.14668141 -0.08748555 -0.010827825 0.04947871 0.10570326
-0.006035312 -0.11231355 0.22328617 0.108320974 -0.13859242 -0.050830685 -0.15221173 -0.02892727
0.076658964 0.18964893 -0.21055731 0.27652273 -0.0020384865 -0.3659837 -0.17157742 -0.020962134

lstm.weight_hh_l1 f4 [256, 64]
00000000: 23a8 4e3e 574f 3fbe fd0c 693e 9b18 703d
00000010: bcfc 38be e685 653e 3664 7f3e 84d0 b8be
00000020: a9a4 19be 674f 8e3e d0a1 9bbf 33ed 2abe
00000030: f95f 93be 6eb2 ed3c b80d 82be 68fc 19bf
00000040: 8682 bf3e 6e36 683e c06d e03d 3cae ddbd
00000050: f6d4 b03d ce6a 2f3e c369 893e 4cf3 08be
00000060: 13d9 df3d 9c98 683d 4a6f 133e 2bf0 953e
00000070: f676 353e 653a 373e 695b c1bc 0a56 853e
00000080: e66c b63e 835c 923d 253c 54be 9db8 203e
00000090: 7e04 45be c156 76be b18f b2bd 3ecd 6d3e
000000a0: 6bcf 5cbc 9b38 853d 171d 10be 55b6 f5bd
000000b0: 7059 86be a967 a4bd d89e 51be 9642 0ebe
000000c0: b169 223e 51ad 35be be25 62bc 6738 5d3e
000000d0: 06d5 39be 71eb 9ebd 830b 0c3e ccd9 53bd
000000e0: d353 ef3c 3dad 6cbb 8f5c 30be ce37 84bd
000000f0: 8218 34bc d44b 6a3e 7564 ef3d 2a42 813e
00000100: d970 36be 78c4 f83c 4ef9 6f3d b5db 8a3d
00000110: 872a ecbd 2163 053e 0807 5f3b 9242 e83c
00000120: fa8f 19be 060b e5bd bc09 1abe 9608 843c
00000130: 6f35 923d da74 d1bd 88c6 d33d a4a0 efbc
00000140: a055 0e3b 9bf3 eb3d 08c8 da3d ffb1 7b3e
00000150: 5215 3dbe 8142 01bd 94dc 723c 74d3 b8bd
00000160: d6ac 4fbd e511 3f3e 97dc 253e a88e 883d
00000170: f2a6 27bd 8961 383d bdf6 043e e7c7 4dbd
00000180: bb3b 133e 276d 553d 1f20 f2bc 4482 b63d
00000190: 32a5 3fbc 400a e53b 3127 11bd 9176 6d3e
000001a0: dc7e 053e 9130 783e 6774 51be efb1 483d
000001b0: 54ed d5bd a980 2fbd 0a84 94bd 1652 4bbd
000001c0: 8488 bbbc c644 17bc 712e 6b3d 9075 8bbd
000001d0: cad6 933d e422 c63d 197c 80bc be69 0dbd
000001e0: f196 bdbc 9109 bebb b930 55bd 84af 943e
000001f0: cf5f 983d ed6b b43d fc94 27bc 0a52 e23d
00000200: 5e7b f1bd e330 51bd 81aa 8cbe 76fe a1bd
00000210: d0e5 afbe a0af c1bd 34e9 f2bc feb9 50be
00000220: d87f 8bbc 495a 88bb 99bb 18bd 0dc4 36bd
00000230: 0301 413e 45ba 253c fdb1 8cbd 17c9 293d
00000240: 5bfe bebd de5d ce3c 12b3 733d e24a 5f3e
00000250: b664 493e 779b 0cbe d559 26be cb42 a9be
00000260: 8c1d 78bd e16c 8cbd ec29 ab3d 7fd1 38bc
00000270: 1ed8 0b3e f5e1 103e a467 113e f8b4 9ebd
00000280: 377f 593e 2499 cd3b e5f5 d83a f2f6 a23c
00000290: 12b5 33be 272f 88bc 9ab7 693d 6d9a 143e
000002a0: 218e 513e 7a2a 39bd c524 94be e5e9 cebd
000002b0: 5bce 113d 64c1 893c 4d24 133d 6c42 3bbe
000002c0: 5cb0 403e a61c e33c 4df8 66be 4346 053d
000002d0: 4943 f73d 14b1 923d dd48 74ba 7021 acbd
000002e0: c60c 8c3e 46fc a13d 09af ed3d 5540 8d3d
000002f0: 524f 22bd 7e71 f43d 03c9 68bd 1c42 0fbe
00000300: d177 c5bd e291 eebd 51e3 d63d 0a2d 273e
00000310: 4d6b 34be 1cb9 b4bd 7cd9 903d 53c2 a1bd
00000320: 29f2 0bbe 432f 973d 6827 0bbe 6c3d c6bd
00000330: fb79 c0bd 3d63 18be 6ad9 7fbd a100 17bd
00000340: 8da3 103e bd48 413d 51e9 ef3d bca1 143e
00000350: ee0c 36bd 882d 293e 116a ea3d fa1c 82bd
00000360: 1c8f 9a3d 0753 c03d abdd de3c 38f0 42bd
00000370: a17c 433e 8e94 ff3d 573a 303e 341c 383d
00000380: 55e0 5f3e 80f9 f53c 1726 2ebd 7bd0 233e
00000390: eac7 a4bd 73b1 05be 6c96 483c d153 753e
000003a0: 235c 203e 29be a5bd c0e3 3abc 468b 003c
000003b0: 866b 4bbc 8765 243d 5b78 20be 512a 823d
000003c0: dc6a 3b3d 8c05 d9bd 1fba 743e 94d1 dfbb
000003d0: 3257 26be 7028 2abe b20f 603c b5ab f73d
000003e0: ab4d ccbd 2bc6 1a3c 7c48 4abd 98d7 d63d
000003f0: ac94 e2bd 2733 333e 913a 263e 69a5 8a3e
0.20181327 -0.1868261 0.22758861 0.058617216 -0.1806516 0.2241436 0.24940571 -0.36096585
-0.15004219 0.27794954 -1.2158756 -0.16692047 -0.2878416 0.029015746 -0.25401092 -0.60150766
0.3740427 0.22677013 0.10958433 -0.10824248 0.08634369 0.17130587 0.26838502 -0.1337406
0.109300755 0.056786165 0.14397922 0.29284796 0.17721161 0.1789337 -0.023603158 0.26042205
0.35629958 0.071465515 -0.20726068 0.15695424 -0.19239995 -0.24056531 -0.08718813 0.23222825
-0.013477187 0.06504937 -0.14073597 -0.11997668 -0.2624011 -0.08027584 -0.2047075 -0.13892588
0.1586063 -0.17741896 -0.013802944 0.21603547 -0.18147668 -0.07759751 0.13676266 -0.05172138
0.029214775 -0.0036114 -0.17222808 -0.064559564 -0.010992171 0.22880489 0.116890825 0.25245792
-0.17816485 0.030367121 0.058587365 0.06780187 -0.11531549 0.13026096 0.003403129 0.028352056
-0.14996329 -0.11183743 -0.15042776 0.016117375 0.07139098 -0.10227366 0.10340601 -0.029251404
0.0021718517 0.115210734 0.10682684 0.24579619 -0.18465164 -0.031557564 0.014823098 -0.090247065
-0.05070194 0.1865917 0.1619743 0.066678345 -0.040930696 0.04501489 0.12984748 -0.05023947
0.14378254 0.05210605 -0.029556332 0.08911565 -0.0116971005 0.0069897473 -0.035437766 0.2318976
0.13036674 0.24237277 -0.2045456 0.048997816 -0.10445657 -0.04284731 -0.07251747 -0.04963883
-0.022892244 -0.009232705 0.057417337 -0.06809533 0.07218702 0.096746236 -0.015684174 -0.03452467
-0.023143264 -0.0057994802 -0.05204842 0.29040158 0.07440149 0.08809648 -0.010228392 0.11050804
-0.117911085 -0.051072013 -0.27473834 -0.07909863 -0.3435502 -0.09457326 -0.029652216 -0.2038345
-0.017028734 -0.0041611535 -0.037288282 -0.044620562 0.18848042 0.010115211 -0.06869886 0.04145154
-0.09325858 0.025191244 0.059496947 0.2180591 0.19667324 -0.1373118 -0.16245206 -0.33058771
-0.060575053 -0.068567045 0.08357605 -0.0112804165 0.13656661 0.14148696 0.14199692 -0.07749361
0.21239935 0.0062743593 0.0016552774 0.019893143 -0.17549542 -0.016624046 0.05705986 0.14512034
0.20464374 -0.045206524 -0.28934303 -0.101032056 0.035597187 0.016815849 0.03592329 -0.18287057
0.18817276 0.027723622 -0.22555657 0.03253771 0.120733805 0.07162681 -0.0009318719 -0.08404815
0.27353495 0.079094455 0.11605651 0.06897036 -0.039626427 0.119357094 -0.056832325 -0.13990062
-0.09641994 -0.11648919 0.10492576 0.16325775 -0.17619057 -0.08824369 0.07072732 -0.078983925
-0.13666596 0.07382061 -0.13589251 -0.09679684 -0.09398266 -0.14881606 -0.0624632 -0.036865834
0.1412489 0.04718851 0.117144234 0.14514822 -0.044445924 0.16521275 0.11446012 -0.06353183
0.07546827 0.09390836 0.027205309 -0.04759237 0.19090511 0.124795064 0.17209755 0.04494877
0.2186292 0.030026197 -0.042516794 0.15997498 -0.08045943 -0.13055973 0.012242895 0.23957755
0.15660147 -0.08092911 -0.011406839 0.007845705 -0.012415772 0.040135887 -0.15670912 0.063557275
0.045756206 -0.10596761 0.23899125 -0.0068304036 -0.162442 -0.16616988 0.013675617 0.120932974
-0.099757515 0.009446661 -0.049385533 0.1049034 -0.11063513 0.17499982 0.16233279 0.27079323

lstm.bias_ih_l1 f4 [256]
00000000: 460e 53bf 8b1a 33bf c0ee 0fbf 4297 60bf
00000010: a3d5 65bf dee3 dabe 8dc9 26bf 5d7e 43bf
00000020: f744 59bf 3b81 4ebf 2616 0bbf 0d2a 6cbf
00000030: d05c 51bf a57b 0abf 82a8 3abf 6353 34bf
00000040: 28fc 3ebf 7255 32bf 6e3b 0ebf bef3 3bbf
00000050: adbe bebe a045 0cbf 6e8a ccbe dce4 52bf
00000060: d7c8 3abf 0686 12bf 0855 55bf e673 37bf
00000070: b27d 47bf 7f19 4cbf 495c 44bf df8c 38bf
00000080: 5e1a 05bf 6d51 38bf ebb2 f4be cc34 68bf
00000090: f3de 49bf 2597 53bf 8f15 21bf 3b9c 31bf
000000a0: 68fc 0cbf 8ca1 25bf a675 0fbf 5ee7 34bf
000000b0: 1c19 6abf bbd6 50bf 3a80 14bf fc38 31bf
000000c0: c25e 32bf 6103 39bf 8d85 1ebf 3b0c 4abf
000000d0: 3d30 2cbf 79eb 2cbf 80c9 13bf 8929 1abf
000000e0: 06b1 3bbf 8532 4abf 4879 41bf 2664 aebe
000000f0: 913c 2dbf 8ea9 3bbf 36a9 20bf d8eb 03bf
00000100: 5455 d1bd 8f71 5f3d 3cff 65be 251d a5be
00000110: d4f8 79bd 6f10 37bf 2316 0cbd 2861 11be
00000120: 7e75 303d 4872 20be 3d26 003d 51a9 50be
00000130: fdf7 4dbd 4011 80bd b33a 04be 5333 56be
00000140: 0e11 a0be c9a4 87bd 36ab 53bf 929f ccbc
00000150: 8b90 f7bc 12e9 573d f034 30be bbe3 f23c
00000160: 50ae 72be b1d7 65be 942c c53c 2f4b 17be
00000170: ae20 0a3d b21d a5be d165 cabd 7e28 b63d
00000180: 0cce 51be efd0 f4bd 4468 19bd eb57 dbbd
00000190: 751c 04be bdc4 d9bd a152 f4bd 5092 033d
000001a0: 7aa8 33be 9360 553d efe5 7bbe 3e6b c6bd
000001b0: 5e7b e4bd 8a53 8cbe d899 e9bb 60c6 143e
000001c0: f578 abbe d43e 443e d356 06bf 7556 dfbc
000001d0: 903e c9be adc6 9ebe 74bd ff3d 21b8 713c
000001e0: 1b41 b83d 9c35 d9be 9167 7e3d 127c b73d
000001f0: 3fd7 683d 06c8 22be 2085 58be 2817 f5bd
00000200: 3e5b d9bc 61cd 7bbd 2fde 4cbc c941 143d
00000210: a90f b1bd 9cbf 983d 84ef 7a3d cf43 acbd
00000220: beec 0cbc 7494 5dbd e897 c53d c621 cf3d
00000230: d97b ed3b a0ff 013e f4f6 1dbd 0956 da3d
00000240: 23d8 2f3e 2f75 283d 0006 f43d 9225 0f3e
00000250: ef5e 503a c418 d0bc 66af fb3d 1b2f 0b3d
00000260: 5a34 9e3d 1f4c 9cbd be6a 20bc d6fa 9fbc
00000270: 2704 863c 77e3 af3d 95f6 813d 4cb9 61bb
00000280: 053f 86ba 1462 863d 897e e3bb f799 1dbc
00000290: 22ea 98bc 3eb5 c03d 20dc 973c eb3e b93c
000002a0: 90aa 03bd 122b c5bd 3aad 5fbd 6aaf d23d
000002b0: 53a3 19bd 38e8 91bc 2384 873d 21cf 733d
000002c0: f3c9 073e 2fc5 1fbd 3960 ed3d 9d4c 9bbd
000002d0: 5bc8 9cbb 3b32 8d3d 21e9 1e3e 6d88 703d
000002e0: bd5d 80bd acc3 3fbb 96cd 02bb 50ed 04be
000002f0: fe23 1dbe e5af c7bd 6a13 abbd 1a7b 40bb
00000300: 8055 99be 3fe8 ffbe 244d b6be 74ee 14bf
00000310: 16e7 00bf cd0e 29bf 85d3 20bf 8f91 19bf
00000320: f550 30bf 736d 0cbf f7f5 d7be c4ac e5be
00000330: 10ba 26bf fb5f ebbe a1ac 2bbf 3995 f9be
00000340: 3494 12bf 4a76 f9be 2ebd 25bf 5cd7 0cbf
00000350: 53a2 1abf 8034 e2be a847 1bbf feaf dbbe
00000360: 54fd 33bf 67cb 53bf 844e fdbe 2204 2fbf
00000370: 31ca 36bf d909 23bf 4ec6 1ebf b6f3 15bf
00000380: da92 b9be 01d0 01bf ad4d 26bf a243 02bf
00000390: 8165 21bf b0c0 06bf 89b1 33bf f9a1 a5be
000003a0: 5660 00bf dfad 6fbe a445 d1be 9956 c8be
000003b0: 14ac 18bf a9a5 24bf 8a95 0dbf 4443 14bf
000003c0: bacb 18bf 1567 d8be 2233 31bf cee4 12bf
000003d0: 77c3 32bf 5428 96be 7b55 15bf ae3e 8fbe
000003e0: 4dd3 12bf d40b 21bf e0e8 0ebf 0ab0 a0be
000003f0: 0c16 f1be 004e 39bf 426a babe a99a a2be
-0.82443655 -0.69962376 -0.5622368 -0.877308 -0.8977911 -0.42751974 -0.6515129 -0.7636469
-0.84870857 -0.8066594 -0.5433067 -0.92251664 -0.81782246 -0.54094917 -0.7291337 -0.7043974
-0.7460351 -0.6966163 -0.5555943 -0.73418796 -0.3725485 -0.5479374 -0.39949363 -0.8238046
-0.7296271 -0.57235754 -0.8333287 -0.7166122 -0.7792617 -0.79726404 -0.76703316 -0.7208995
-0.5199336 -0.71999246 -0.47792754 -0.9070556 -0.7885582 -0.82652503 -0.6292352 -0.69379014
-0.5507264 -0.64699626 -0.5603889 -0.7066554 -0.91444564 -0.8157765 -0.5800816 -0.69227576
-0.6967584 -0.7227078 -0.6192253 -0.7892491 -0.67261106 -0.675468 -0.5772934 -0.6021963
-0.7331699 -0.78983337 -0.75575686 -0.34060782 -0.6767054 -0.73305595 -0.62758195 -0.51531744
-0.10221353 0.054551657 -0.22460645 -0.32248798 -0.061028317 -0.7150945 -0.0342008 -0.14197218
0.0430808 -0.15668595 0.031286467 -0.20377089 -0.05028533 -0.0625329 -0.12913017 -0.20918016
-0.31263012 -0.06623227 -0.8268312 -0.024978433 -0.03022029 0.052712508 -0.17207694 0.029649606
-0.23699307 -0.22445561 0.024069108 -0.14774774 0.033722572 -0.32249218 -0.09882701 0.08894442
-0.20488757 -0.119539134 -0.03745295 -0.107101284 -0.1290148 -0.10633228 -0.11929823 0.032121956
-0.17544737 0.052094053 -0.24599431 -0.096884236 -0.11156343 -0.27407485 -0.0071289353 0.14528799
-0.3349072 0.19164592 -0.52476233 -0.027262906 -0.39305544 -0.31010953 0.12487307 0.014753372
0.08996793 -0.42423713 0.062110487 0.089592114 0.0568459 -0.15896615 -0.21144533 -0.11967307
-0.026532765 -0.06147516 -0.012504145 0.03619555 -0.08645565 0.074584216 0.061263576 -0.08411371
-0.008601366 -0.054096654 0.096481144 0.10113864 0.00724743 0.1269517 -0.03856559 0.10660941
0.17172293 0.04112738 0.11915207 0.13979176 0.00079487165 -0.025402434 0.12289314 0.03398047
0.07724829 -0.076317064 -0.009791074 -0.019528788 0.016359402 0.08588307 0.0634586 -0.003444272
-0.001024217 0.06561676 -0.0069425744 -0.009619228 -0.01866633 0.09409569 0.018537581 0.02261301
-0.032145083 -0.09627356 -0.05460856 0.10287364 -0.037509274 -0.017810926 0.06617 0.059523705
0.13260631 -0.03900641 0.11590619 -0.07582972 -0.0047846264 0.06894346 0.15518619 0.058723856
-0.06267879 -0.0029260917 -0.0019958965 -0.12981153 -0.15345761 -0.09750346 -0.08353312 -0.002937025
-0.29948044 -0.49981877 -0.3560573 -0.5817635 -0.5035261 -0.6603821 -0.62822753 -0.5998773
-0.6887353 -0.54854506 -0.42179844 -0.44858372 -0.6512766 -0.45971665 -0.67060286 -0.4874666
-0.5725739 -0.4872306 -0.6474179 -0.5501611 -0.6040394 -0.4418068 -0.60656214 -0.4290771
-0.70308423 -0.8273224 -0.49473965 -0.6836568 -0.7140227 -0.636869 -0.6202134 -0.58575
-0.3624485 -0.50708014 -0.64962274 -0.5088445 -0.6304551 -0.5263777 -0.7019277 -0.32350138
-0.50146997 -0.2340617 -0.40873444 -0.3912857 -0.5963757 -0.6431528 -0.55306304 -0.5791514
-0.5968586 -0.42266145 -0.6921865 -0.5738038 -0.69829506 -0.29327643 -0.5833356 -0.27977508
-0.5735367 -0.62908673 -0.5582409 -0.31384307 -0.47087133 -0.72384644 -0.36409193 -0.3175862

lstm.bias_hh_l1 f4 [256]
00000000: a4ae 69bf 3b72 3dbf aeb8 03bf d0cc 2bbf
00000010: a731 5dbf e08c f1be 1779 2bbf afe1 37bf
00000020: 3570 4abf f935 3fbf 3951 f3be 834c 44bf
00000030: 9223 3bbf 27ca fdbe 6cad 39bf 6345 3fbf
00000040: 06d3 5abf 427a 5dbf 7cfe 10bf 6e12 5cbf
00000050: 01c4 cbbe a262 0dbf a2da cbbe 72b3 3bbf
00000060: 14da 1dbf 8000 22bf f854 2cbf c003 3fbf
00000070: 727c 58bf 01ec 4bbf 0df1 45bf dbbc 25bf
00000080: 2ac6 27bf f96c 38bf 4df9 eebe d4d4 52bf
00000090: 33ae 5ebf 11c9 47bf dca7 15bf 6f22 14bf
000000a0: c1b5 25bf b6ee f7be 5e16 04bf 06fc 42bf
000000b0: 5ef3 35bf 8735 5cbf 91da 2bbf 68ab 36bf
000000c0: 30a8 2bbf 873e 36bf 8b6a 05bf 7b4f 5bbf
000000d0: 17e8 35bf 91c1 32bf 6808 06bf d929 24bf
000000e0: d251 3ebf e1fc 1dbf f6e5 5dbf 4845 d4be
000000f0: 7b75 57bf a880 3cbf ae2f 2fbf bf05 1fbf
00000100: 6469 4ebe 05b0 0dbd 2ccf 38be 9cfd 6abe
00000110: c820 3ebd bda0 42bf 1d2c 64bd ca05 31bd
00000120: d9d3 843c b13c 98be 3399 a5bc a358 1bbe
00000130: 904e 40be 6cd2 5ebe cb1f 7b3c 5e73 193d
00000140: aec2 bebe 13b3 e9bd 6e7d 4abf 26ff 15be
00000150: 2c2d 053d e70c 24be 0e7e 51be 63cf e1bd
00000160: 6fcb 9cbe c314 3cbe 155a 8bbd 0d16 7dbd
00000170: 0ffc 18be 8ae4 b1be d8cf 55be a616 213e
00000180: 0afc 35bd bcaa 063d e28e 7e3d 8013 83be
00000190: bfc2 1dbe f503 fbbd de00 913c b5d0 f93d
000001a0: 4881 1bbe 7e6f e53d 9d87 22be 1677 a3bd
000001b0: 542e 00bd 9295 3bbe 01aa c63b 79e6 8bbc
000001c0: bbc7 3dbe 88b3 403e 2e3a f6be a601 73be
000001d0: e82e 96be 6f46 98be 01cd 67b8 d9a4 88b9
000001e0: 9825 46bd 99a9 f8be 5cf0 9c3d 1049 d5bd
000001f0: 91af 17be 2ed7 2ebe 6a0e 9cbe 099d ed39
00000200: d9fc 063c cc7b 91bd bbee 653c 9190 5b3d
00000210: 36b8 1bbb a74a 1bbe 9d59 20bd eb8b cb3d
00000220: 0df9 febc c323 b7bc d967 5b3e 239e 8b3c
00000230: 8ce8 b73d ccae ec3d f3b5 bebc 55e8 8bbd
00000240: 99ad 83bd 8127 163d 8d8b 383e 1b0b 29bc
00000250: 7b8a 583d 1ccf 03bd 8be4 3f3e ada2 71bc
00000260: 148d 743d 2139 8f3d c46c b53b 27bb 863d
00000270: a638 c33c 52ea 5a3d 8081 2c3c 7f4f 043d
00000280: 7218 03bd 3612 79b9 f00b 3fbd 738e 383e
00000290: dd9c d8bc 4786 20bd d50c debd ce9c 4d3d
000002a0: f355 d13d 0023 133d 1243 5abd 539d 633d
000002b0: f0c7 8bbd fe34 1bbd ae0f a9bd f1a5 36bd
000002c0: 5a2d e23d f52b fa3c 551f 903d 8ae8 673d
000002d0: 3548 2bbe 918b a23d 9f90 e13d 4152 0c3d
000002e0: 97b5 bd3d cf56 eebd fdb1 2cbc 949f 74bd
000002f0: 0083 d8bd adfd ed3d 3e45 ae3d 515c b53d
00000300: f4a1 e8be a104 0abf fe53 0fbf b891 11bf
00000310: ee49 2ebf 67c5 30bf 5f7a f9be 8594 13bf
00000320: 19e7 0dbf ddfc 27bf 9191 cbbe 38ab d6be
00000330: b0bb 1fbf a5ca febe bdf7 34bf d6ea 13bf
00000340: 3c61 3fbf 28db 1cbf 6900 06bf eb36 f2be
00000350: 95fb 32bf 98af b3be 5400 31bf 1538 11bf
00000360: aa4d 38bf a543 42bf 8837 fcbe d443 06bf
00000370: 3786 2abf 45ad 2dbf 82c6 21bf b76a 0fbf
00000380: 6a14 b8be bdc9 27bf 1cac e0be 098c f9be
00000390: 4ad4 febe 9a24 13bf f543 14bf e92c 45be
000003a0: 2cf3 03bf f100 6bbe 2e03 01bf 9483 febe
000003b0: 4eaa d7be 1322 0ebf 7e11 19bf 488d 11bf
000003c0: 64e0 19bf 67d6 05bf aa9a 03bf 5057 39bf
000003d0: 49ec 31bf 8c4c f2be 13d2 debe b450 efbe
000003e0: 5b6b 0cbf 52fd 1abf 4ae8 0dbf 0438 b0be
000003f0: dac4 0abf 9b3a 05bf bd4b 09bf 21c5 b7be
-0.91282105 -0.74002427 -0.51453674 -0.67109394 -0.8640389 -0.47177792 -0.66981643 -0.7182874
-0.79077464 -0.7469173 -0.47522905 -0.7667925 -0.7310115 -0.49568292 -0.72530246 -0.7471525
-0.85478246 -0.86514676 -0.5663831 -0.8596562 -0.39797977 -0.55228627 -0.3981524 -0.73320687
-0.61660886 -0.6328201 -0.6731715 -0.746151 -0.8456489 -0.7965699 -0.7732094 -0.64741296
-0.6553675 -0.7204128 -0.46674576 -0.82356 -0.86984557 -0.7804118 -0.5845926 -0.5786504
-0.6473046 -0.4842431 -0.5159663 -0.7616581 -0.71074474 -0.86019176 -0.6713038 -0.71355295
-0.6705351 -0.7118916 -0.52115697 -0.8566815 -0.71057266 -0.6982661 -0.52356577 -0.64126354
-0.743436 -0.6171399 -0.8667902 -0.41459107 -0.84163636 -0.73633814 -0.6843213 -0.6211814
-0.20157391 -0.034591693 -0.1804778 -0.22948307 -0.04641798 -0.7602652 -0.055706132 -0.04321841
0.016214298 -0.29733804 -0.020214653 -0.15170531 -0.18779969 -0.21759957 0.015327404 0.03746354
-0.37257904 -0.11411109 -0.7909764 -0.14648113 0.032513782 -0.16020547 -0.20458242 -0.11025884
-0.30623958 -0.18367295 -0.06804291 -0.061788607 -0.14939903 -0.34744674 -0.20880067 0.15731296
-0.044429816 0.03287767 0.062147982 -0.25600815 -0.15406321 -0.12256614 0.017700609 0.12198011
-0.15186036 0.11202906 -0.15872045 -0.07981698 -0.031294182 -0.18318775 0.0060627465 -0.017077671
-0.18533222 0.18818486 -0.48091263 -0.23731098 -0.29332662 -0.29741237 -5.5265617e-05 -0.00026062762
-0.048375696 -0.48566893 0.076630324 -0.10414326 -0.14813067 -0.17074272 -0.30479747 0.00045321163
0.0082389945 -0.071036905 0.014033969 0.053604666 -0.0023760921 -0.15165196 -0.039147962 0.099387966
-0.031124616 -0.02235592 0.21426333 0.017043179 0.08979902 0.11556777 -0.02328012 -0.06831423
-0.064295955 0.036658768 0.18021984 -0.010317589 0.05286644 -0.032179937 0.18739526 -0.014748258
0.059704855 0.06993318 0.0055366475 0.06578665 0.023830723 0.05344612 0.010528922 0.032302376
-0.032005735 -0.00023753275 -0.046642244 0.1802309 -0.026441986 -0.039190557 -0.10842291 0.05019837
0.10221472 0.03592205 -0.05328662 0.055569958 -0.068252444 -0.037892334 -0.08254944 -0.044591848
0.110438064 0.030538538 0.07037226 0.05661825 -0.16726764 0.079367764 0.110139124 0.03425813
0.09263151 -0.11637651 -0.010540483 -0.059722498 -0.10571861 0.116206504 0.08509301 0.088554986
-0.4543606 -0.53913313 -0.55987537 -0.56862974 -0.6808156 -0.6905121 -0.48726174 -0.576485
-0.5543075 -0.65620214 -0.39759496 -0.41927505 -0.62395763 -0.4976398 -0.7069052 -0.57780206
-0.7475774 -0.61271906 -0.52344376 -0.47307524 -0.69915134 -0.35094905 -0.69141126 -0.567262
-0.71993506 -0.7588447 -0.49261117 -0.5244725 -0.66611046 -0.67842513 -0.63193524 -0.5602221
-0.35953075 -0.65542203 -0.4388131 -0.4873965 -0.4977134 -0.57477725 -0.57916194 -0.19255413
-0.51542926 -0.22949578 -0.50395477 -0.4970976 -0.4212212 -0.55520743 -0.59792316 -0.56856203
-0.6010802 -0.52280277 -0.51407874 -0.72398853 -0.6950117 -0.47324026 -0.4351965 -0.4674126
-0.5485131 -0.60542786 -0.5543257 -0.34417737 -0.5420662 -0.5204255 -0.5363119 -0.35892585
